…
Average actions of items: 21.038974358974357
The number of inters: 102565
The sparsity of the dataset: 99.7766072689357%
Remain Fields: ['target_user_id', 'target_item_id', 'target_rating']
Num of overlapped user: 956
Num of overlapped item: 1
Tue 25 Mar 2025 09:52:47 INFO  [Training]: train_batch_size = [2048] negative sampling: [{'uniform': 1}]
Tue 25 Mar 2025 09:52:47 INFO  [Evaluation]: eval_batch_size = [2048] eval_args: [{'split': {'RS': [0.6, 0.2, 0.2]}, 'split_valid': {'RS': [0.6, 0.2, 0.2]}, 'group_by': 'user', 'order': 'RO', 'mode': 'full'}]
Tue 25 Mar 2025 09:52:48 INFO  CoNet(
  (source_user_embedding): Embedding(13410, 64)
  (target_user_embedding): Embedding(13410, 64)
  (source_item_embedding): Embedding(7505, 64)
  (target_item_embedding): Embedding(7505, 64)
  (loss): BCELoss()
  (source_crossunit_linear): ModuleList(
    (0): Linear(in_features=128, out_features=64, bias=True)
    (1): Linear(in_features=64, out_features=32, bias=True)
    (2): Linear(in_features=32, out_features=16, bias=True)
    (3): Linear(in_features=16, out_features=8, bias=True)
  )
  (source_crossunit_act): ModuleList(
    (0): ReLU()
    (1): ReLU()
    (2): ReLU()
    (3): ReLU()
  )
  (source_outputunit): Sequential(
    (0): Linear(in_features=8, out_features=1, bias=True)
    (1): Sigmoid()
  )
  (target_crossunit_linear): ModuleList(
    (0): Linear(in_features=128, out_features=64, bias=True)
    (1): Linear(in_features=64, out_features=32, bias=True)
    (2): Linear(in_features=32, out_features=16, bias=True)
    (3): Linear(in_features=16, out_features=8, bias=True)
  )
  (target_crossunit_act): ModuleList(
    (0): ReLU()
    (1): ReLU()
    (2): ReLU()
    (3): ReLU()
  )
  (target_outputunit): Sequential(
    (0): Linear(in_features=8, out_features=1, bias=True)
    (1): Sigmoid()
  )
  (crossparas): ModuleList(
    (0): Linear(in_features=128, out_features=64, bias=False)
    (1): Linear(in_features=64, out_features=32, bias=False)
    (2): Linear(in_features=32, out_features=16, bias=False)
    (3): Linear(in_features=16, out_features=8, bias=False)
  )
)
Trainable parameters: 2710018
Tue 25 Mar 2025 09:52:48 INFO  Start training with BOTH mode
Tue 25 Mar 2025 09:52:50 INFO  epoch 0 training [time: 1.96s, train loss: 1370.7333]
Tue 25 Mar 2025 09:53:25 INFO  epoch 0 evaluating [time: 34.92s, valid_score: 0.055600]
Tue 25 Mar 2025 09:53:25 INFO  valid result: 
recall@20 : 0.0556    ndcg@20 : 0.0273    hit@20 : 0.0895    mrr@20 : 0.0254
…
